…
    MaxPooling2D(2,2),
    Flatten(),
    Dense(128, activation="relu"),
    Dropout(0.5), # Reduce overfitting
    Dense(39, activation="softmax") # 5 categories
])

model.compile(optimizer="adam",
              loss="categorical_crossentropy",
              metrics=["accuracy"])
model.summary()
-----------------------
 Model: "sequential_1"

┏━━━━━━━━━━━━━━━━━━━━━━━━━━━━━━━━━┳━━━━━━━━━━━━━━━━━━━━━━━━┳━━━━━━━━━━━━━━━┓
┃ Layer (type)                    ┃ Output Shape           ┃       Param # ┃
┡━━━━━━━━━━━━━━━━━━━━━━━━━━━━━━━━━╇━━━━━━━━━━━━━━━━━━━━━━━━╇━━━━━━━━━━━━━━━┩
│ conv2d_3 (Conv2D)               │ (None, 126, 126, 32)   │           896 │
├─────────────────────────────────┼────────────────────────┼───────────────┤
│ max_pooling2d_3 (MaxPooling2D)  │ (None, 63, 63, 32)     │             0 │
├─────────────────────────────────┼────────────────────────┼───────────────┤
│ conv2d_4 (Conv2D)               │ (None, 61, 61, 64)     │        18,496 │
├─────────────────────────────────┼────────────────────────┼───────────────┤
│ max_pooling2d_4 (MaxPooling2D)  │ (None, 30, 30, 64)     │             0 │
├─────────────────────────────────┼────────────────────────┼───────────────┤
│ conv2d_5 (Conv2D)               │ (None, 28, 28, 128)    │        73,856 │
├─────────────────────────────────┼────────────────────────┼───────────────┤
│ max_pooling2d_5 (MaxPooling2D)  │ (None, 14, 14, 128)    │             0 │
├─────────────────────────────────┼────────────────────────┼───────────────┤
│ flatten_1 (Flatten)             │ (None, 25088)          │             0 │
├─────────────────────────────────┼────────────────────────┼───────────────┤
│ dense_2 (Dense)                 │ (None, 128)            │     3,211,392 │
├─────────────────────────────────┼────────────────────────┼───────────────┤
│ dropout_1 (Dropout)             │ (None, 128)            │             0 │
├─────────────────────────────────┼────────────────────────┼───────────────┤
│ dense_3 (Dense)                 │ (None, 39)             │         5,031 │
└─────────────────────────────────┴────────────────────────┴───────────────┘

 Total params: 3,309,671 (12.63 MB)

 Trainable params: 3,309,671 (12.63 MB)

 Non-trainable params: 0 (0.00 B)
-----------------------
epochs = 10
history = model.fit(train_generator, epochs=epochs)
-----------------------
Epoch 1/10
73/73 ━━━━━━━━━━━━━━━━━━━━ 1380s 19s/step - accuracy: 0.0624 - loss: 3.5816
Epoch 2/10
…
